checkpoint.pth (torch_old, 28393 bytes, 6 tensors)

fc1.weight f4 [64, 37]
00000000: e64d d0bd 9311 f23c e32e 0cbd 1fcb 62bc
00000010: 029e e03a b083 813d 6691 7ebc 11d6 053e
00000020: 1d75 4d3d f565 823d 4ced 903e 6033 27bf
00000030: 7eba f0be 99a3 17bf 8371 0ec0 9f96 823c
00000040: 2fee c33c 683a 533d 960e 2b3d 7f12 f3bc
00000050: fbc5 8d3d a3d4 9d3c ea87 013e 0aec 533e
00000060: 9959 0e3d 9833 c6bd 532b 1dbd f680 90bc
00000070: f67c d53d 7d18 1f3e 42ba 50bd 3fa6 bc3d
00000080: 3fa9 13bb 8a74 433c c17c 403d dcc4 7fba
00000090: 5b49 9cbc 0952 aa3d e271 da3d 0bf1 223e
000000a0: b4cf 0c3d 5d65 2e3d df12 653e 90b9 3dbf
000000b0: f8b4 9ebe 362e e5be 9981 8ebf ccf1 c33d
000000c0: 05ce ffbc 5cc8 b3bc c7d3 1f3e c10f 033e
000000d0: 4f25 163d ce31 ef3d ffd7 3abc fca1 ce3d
000000e0: ac99 533d 0053 15be 6050 01be a3b9 4cbd
000000f0: 27a0 0d3d 8744 dcbc 9576 c8bd d748 803d
00000100: 7ab1 043e f64a b6bc 70a1 1e3d b0f2 75bd
00000110: f781 813e d655 bc3d 19f7 013e d8fd 4e3e
00000120: 947d fabc 5e5f c3bc 08e7 143d 9fb5 af3d
00000130: 273c 7c3e 083c 78be 0544 d2bd 324d 2bbf
00000140: 1c84 843d 28c7 b23e 14ce 44be b08c a5bf
00000150: cd6e efbd 657e a73d 0f11 febd 0bd7 4e3e
00000160: fae6 c5bd dfca 4ebf d6f7 ac3e 7676 383e
00000170: 7e8c ab3c 074f 84be 010f 32be 23cd a63d
00000180: c5e0 7cbc 07c5 213e abf0 04be b2aa b23c
00000190: cdb9 7a3e d911 053e 7b19 a1be 37f4 b8be
000001a0: 3b5a 7dbe d9c7 ae3d 8357 40bd 239e 25be
000001b0: f834 4ebe 34f8 373d 719d 2dbc bf0c b53d
000001c0: 2c21 1fbd f355 543e b431 523c ac66 8ebd
000001d0: 767b 0dbe 11aa 743d 4b70 ebbc 077b 4a3e
000001e0: 8083 cf3d 11df d33c d4a2 fbbd 5f53 3fbe
000001f0: 190a c93d ee7d d53c 94dc 76be d400 12bd
00000200: b724 e0ba 1903 213c f4e2 cd3d cc1d 013e
00000210: 8c1f 0abf d376 363e 7320 91be b646 9cbf
00000220: e77e a7bc 2def e8bd 7735 a63d 5781 223e
00000230: 6cca a63e e0a2 bfbe 9561 a83e 6363 613e
00000240: 011d 1dbd e6b3 c2be b315 2f3d 7120 76bc
00000250: 2b5e 43be 7357 1bbe c030 5abd ab01 81be
00000260: 63eb 3bbe 89c8 b7bd b98f da3e 5a40 83be
00000270: ebeb 01bd fe93 f7be fbba 7ebe 3bdd c9bd
00000280: 0667 ecbd 8169 c139 0f60 55be 53b6 68be
00000290: 03d2 903d 89cb 4dbd d4e6 61bc eda0 adbe
000002a0: 3dd7 8cbe 467f 213c 4ffc 9e3d 8a2a 113e
000002b0: 8c3a 6e3e 81a7 2abd d303 ad39 0869 043e
000002c0: a3b0 89be 71b0 6fbf 8101 eabd abeb 333d
000002d0: 4dd2 3d3e 151b abbd b074 cf3e 2392 97bc
000002e0: 7e3c 23bb a8cc 4cbd 8ee0 c5bd 06a9 0fbc
000002f0: 76da 163e 999b 70bb 344e 883e b517 87bd
00000300: f8ff c6be ece8 19be b64b c3bf 41d4 bdbd
00000310: 1af5 8fbd f1be aa3d df8f 93bd fae6 743d
00000320: 97e2 17bd 1260 b7bd 4eab 243e 02fb ddbb
00000330: f001 523d 9f42 c73d 6bca 16bd 8fee de3d
00000340: b82f 503e 35ca 233d b548 49bd bbf5 1e3d
00000350: 9919 5ebd fceb 2c3e 9e6a 923e 36cd 7d3c
00000360: 94ca 49be 65f1 603d 6927 e53d fb97 a03d
00000370: fe21 b43d 2526 a13b 2c99 cc39 d53f a93d
00000380: e90a e9bb 9d4a 85be 0757 81be 1fa2 3bbe
00000390: eeac 393d c3e6 f8bc 6d50 e3bd e4e0 873e
000003a0: 778e 513e 25cb 7abe 1486 9e3d 7dd3 2bbd
000003b0: 5bd0 8fbe 613d a93d cb0d 02be 572e d83d
000003c0: 7816 c8be 43d9 48be eb25 94be c1ed d63d
000003d0: e934 963d 9e71 6e3c e03f cc3e fbcb 65bd
000003e0: 774c 88be 4504 fc3d e238 41bc 10e8 4fbd
000003f0: 3d9d e23d 46ac afbe b16f c93d 439c 8d3d
-0.10171108 0.029549396 -0.034224402 -0.013842373 0.0017136934 0.063239455 -0.015537595 0.13069941
0.050160516 0.06367103 0.28306043 -0.6531277 -0.47017282 -0.59234005 -2.2256782 0.015940962
0.023917286 0.051569372 0.041761957 -0.029671906 0.069225274 0.019266432 0.12649503 0.2069551
0.034753416 -0.096778095 -0.038371395 -0.017639618 0.10424225 0.15536685 -0.05095888 0.092113964
-0.0022531298 0.011929641 0.046993975 -0.00097568124 -0.019077947 0.08316428 0.10666253 0.15912263
0.03437777 0.042577136 0.2237048 -0.7411127 -0.30997443 -0.4476182 -1.11333 0.095676035
-0.031226167 -0.021946125 0.1560813 0.12798978 0.036656674 0.11679421 -0.011404037 0.1008949
0.051660225 -0.14582443 -0.12628317 -0.049981724 0.03457656 -0.026888145 -0.09788243 0.06263893
0.12958327 -0.022252541 0.038728178 -0.060045898 0.25294468 0.091960594 0.12691917 0.20214021
-0.030577458 -0.023849186 0.03635314 0.08579563 0.24632321 -0.2424165 -0.1026688 -0.66914666
0.0647051 0.3491757 -0.19219238 -1.293356 -0.116910554 0.08178405 -0.124055974 0.2019922
-0.09663196 -0.80778307 0.33782834 0.1801394 0.020941015 -0.25841543 -0.17388536 0.081445955
-0.015434449 0.15797816 -0.12982433 0.02180991 0.2448494 0.1299509 -0.31464753 -0.3612382
-0.24741451 0.08534212 -0.046958458 -0.16173606 -0.20137393 0.04491444 -0.010596619 0.08840322
-0.038849995 0.20735912 0.012829233 -0.06953177 -0.13816628 0.0597325 -0.028740069 0.19773494
0.101325035 0.025863202 -0.122869164 -0.18684147 0.09816379 0.026061025 -0.24107581 -0.03564532
-0.0017100786 0.009827399 0.100530535 0.12609023 -0.53954387 0.17818765 -0.2834507 -1.2209079
-0.020446254 -0.11373744 0.08115666 0.15869652 0.3257631 -0.3742895 0.3288695 0.2201057
-0.03835774 -0.38027877 0.042745303 -0.015022383 -0.19078891 -0.15170078 -0.053269148 -0.25196585
-0.18351512 -0.08973796 0.42687777 -0.25635034 -0.03171913 -0.48355097 -0.24876015 -0.098566495
-0.11543088 0.00036890435 -0.20837425 -0.22725801 0.070713066 -0.050242934 -0.013787944 -0.3391184
-0.27507964 0.0098570045 0.07762968 0.14176384 0.23264521 -0.04166365 0.0003299998 0.12930691
-0.26892576 -0.93628603 -0.11426068 0.043925922 0.18537255 -0.08354775 0.40518713 -0.0185023
-0.0024907882 -0.049999863 -0.09661971 -0.008768326 0.14731774 -0.0036713837 0.26622164 -0.06596319
-0.38867164 -0.15030259 -1.525748 -0.09269 -0.07029171 0.083372004 -0.072051756 0.05979059
-0.037081327 -0.08953871 0.16080973 -0.006774307 0.05127138 0.09729504 -0.036814135 0.10885345
0.20330703 0.03998776 -0.049141604 0.038808566 -0.05422363 0.16886896 0.28596967 0.015490821
-0.19706184 0.05491771 0.111891575 0.07841488 0.08795546 0.0049178773 0.00039024034 0.08264128
-0.0071118963 -0.26033488 -0.2526171 -0.18323563 0.045330934 -0.030383473 -0.110993244 0.26538765
0.20464502 -0.24491556 0.07740417 -0.041949738 -0.2808865 0.0826366 -0.12700574 0.105557136
-0.39079642 -0.19614129 -0.2893518 0.10494567 0.073343106 0.014553456 0.39892483 -0.056102734
-0.26620838 0.12305502 -0.011793347 -0.05075842 0.11065147 -0.34311122 0.098357566 0.0691457

fc1.bias f4 [64]
00000000: 3a3d cc3d e5e3 9dbc e5e8 32bc ac15 11be
00000010: 6aeb 243e 5f6a 89bd 8eff 07be 6c44 0d3d
00000020: ed41 a43c 9511 8fbe 6d20 cb3e 5fce 783e
00000030: fa81 103e be75 903e 3031 c7bd 41c3 e0bd
00000040: ad45 7c3b b875 f43c 0b7a 62bd 2b62 62bd
00000050: dd0e a33c 5110 3ebd f337 013d 03a3 aabd
00000060: a1e1 49be e68d 063e 2fe9 f7bc 20a8 10be
00000070: fbdb b53d 63e6 b43d 925b 32bd 3b21 40be
00000080: 9c44 e33d 921f 8abc 5277 c7bd 4270 d63d
00000090: 4e97 bcbd ef57 313d 3a1a 93bd a798 63bd
000000a0: 418b 9ebd df85 66bd bbf8 09bd c89b 7a3e
000000b0: 103a 09bd f4fa 25be 509f c43d b061 2abe
000000c0: 5840 22be 3724 24bd 7ff1 c4bd 7525 813d
000000d0: 5873 00bd 8f28 dfbc 94bc 10be d61d dabb
000000e0: 3b87 cb3d 54e3 40bc 18d3 c5bd cc58 b1bd
000000f0: 81b4 bcbc 7aa8 adbd 429c 8bbb dd02 793d
0.099726155 -0.019273708 -0.010919784 -0.14168423 0.16105428 -0.06709742 -0.1328108 0.03448908
0.020050967 -0.27943102 0.39673176 0.24297474 0.14112082 0.2821483 -0.09726179 -0.10974742
0.0038493678 0.029841289 -0.05529217 -0.0552694 0.019904548 -0.04640228 0.031547498 -0.08331873
-0.19714977 0.13140067 -0.030262558 -0.14126635 0.088798486 0.08833005 -0.04354436 -0.18762676
0.110970706 -0.016860757 -0.097395554 0.1047063 -0.092085466 0.04329675 -0.07182737 -0.055565502
-0.07741404 -0.056280013 -0.033684473 0.24473488 -0.03350264 -0.16209012 0.09600699 -0.16638827
-0.15844858 -0.0400736 -0.09616374 0.063059725 -0.03136 -0.02724102 -0.14134437 -0.0066563888
0.099379025 -0.011772949 -0.096594036 -0.08659515 -0.02303529 -0.084794 -0.0042605707 0.060793746

fc2.weight f4 [64, 64]
00000000: 66d4 873e 0d7b 0cbe 900d 193c 1056 8c3e
00000010: 8834 03be a8ad 0dbf b595 a4be 8f08 2f3d
00000020: a68c 563e 5bed 15be 5267 0ebd f930 edbe
00000030: 8cad e0be 7233 7c3d 5673 20be b243 cb3d
00000040: 0b56 c6bd 5de9 27bf ced0 323e 5199 0cbf
00000050: d8e2 533e 4867 933d 5fed 56bc 49f8 93be
00000060: ede1 16be cf90 f4bd abb0 243e 28f8 8abe
00000070: 35ec f0bd 9b10 2abd 9660 7dbc ff9b 44bd
00000080: 5189 71bd f4c1 33bc 4846 2d3e 41d8 863e
00000090: 32be 37be 1f26 373d 5623 153e bde7 603e
000000a0: 24c1 f0bd 7337 f3bd da96 c63e 59c6 ddbd
000000b0: ad96 4f3e 3a6c f73c 365e 0ebf 2390 583e
000000c0: 34fa d9bc a692 f6be 81f6 d0bb ade4 9abe
000000d0: 9338 8dbd a426 5a3e dc18 74be 7cab 20be
000000e0: 681e 99be 0963 623e 0961 30be 621e 97be
000000f0: 5add 423d 6311 1cbe 6cff f1bc 00a7 4bbe
00000100: c363 cdbe 6beb 0c3d bbab bebd 7c94 d83c
00000110: 0bd3 a03d 069b 5e3c 1bcf 3e3d 644e 883c
00000120: ce11 bebe 9c8f 14be df82 14be 20a5 cc3e
00000130: bda9 c8be 8d7d 6c3d d463 dd3d a106 403d
00000140: 9f01 b13d 65eb 5b3e 2c55 c33c c7f5 5b3d
00000150: 4ed8 1a3d 69bb 8fbe 2450 c23d 4f38 c4be
00000160: 3d06 dcbd 729b d63d e1d1 a8be 698e 9bbc
00000170: 94d3 60bc 787c d4be 2557 1cbd 87e0 a8bd
00000180: 17a1 d8bc e8de dd3d 538f 813b d761 43be
00000190: 5afa 62bd dcb7 e4be 503a b0bd 1f25 adbe
000001a0: 3582 80be 74a3 56bd 9894 d73d 9821 b1bd
000001b0: 498d 233c 964e 81be 58f4 a5be e5d0 34be
000001c0: 55e5 123c e296 8d3e b525 4cbe 6a1b e83d
000001d0: 9267 6dbd cba6 64be 14b7 78be 928d 86bd
000001e0: 0aed e4be 2935 4bbe 4c90 963d c209 cf3d
000001f0: 884f 09bd 7154 98bd 4f73 433e 741b b2bd
00000200: dc2a 52be 7cd0 67bd a67f 61be 4467 72be
00000210: 3be3 943e 199b e63c 367b 95bb e02b d43d
00000220: 689c d3be 166d 9b3b ca51 29be 67a2 b23e
00000230: 0526 ca3e 7caa 12bd 3c9d 31be c9a3 0c3e
00000240: e157 c2bc 09e4 ba3e 8f83 52bd 12e9 273e
00000250: 595e f83d 6a9d 0d3d b39e 713c 703d 883e
00000260: 7fbc 80bd 901d 2f3e 9a18 12bf 5566 2c3e
00000270: b4e0 d6bd 4c65 213d f1df 5b3e 3c98 8fbb
00000280: 86e8 8bbe c9ff 35bd c2dc 833d 3bec 87be
00000290: 7e44 4f3e a965 59bc 25d4 563d 1075 5abe
000002a0: d1cc 30be 219a 573e f4ea 0a3e 037f 41bd
000002b0: 7c80 ab3c a5a7 3a3e 0bc7 543d 335c cabb
000002c0: 64dc 03be bb7a 253e eaf0 00be 17b4 863d
000002d0: fb8c 1d3e d209 13bf 0f8c a83c 02dd ddbc
000002e0: 29a0 86be d27a b0be 3ffb 5c3e 410f 923d
000002f0: e857 00bd 3065 09bd acfc 10be 3d4a 093e
00000300: 3c9e 603e f239 0b3d 79ae 553d 5db9 32be
00000310: 088c 113e 8f9a f7bd 2318 223e 7d7f 343d
00000320: 4a72 02bf aadc 013e f707 27be 5d55 1b3e
00000330: bb3d 973d 052f 343d 15bb be3d 84dc 13bd
00000340: 5a0f 4cbd 3d25 58bc e394 cfbd ddeb 88bd
00000350: 5c73 64bd 7bdd 893e 368c 9dbd 55ef 723e
00000360: 10ea 88bd 02f9 91bb 6e7f 15bb 9760 41be
00000370: 48b7 b43c fe8b 7f3e b17f 7c3e 9da0 b1bc
00000380: dde0 dcbe 845e 80bd 35cc d83d 0246 153f
00000390: f18f 37be f7f4 903e e265 0bbe 81e2 93be
000003a0: aa63 5c3d dbf0 1f3e ea83 4ebd 7266 8abe
000003b0: d26b c03d cd3d de3d a509 8f3e 645a f4bc
000003c0: c356 53be 72ed 50bd 57d4 d8be a961 9fbc
000003d0: efe4 27be dc6c 34be 8d5d 08bf ffc1 6abe
000003e0: 8ee7 143d 457a a6be 7201 583d 2073 d2bd
000003f0: 30ad e2bb 5546 9dbd c0ef 463b fb21 30be
0.26529235 -0.13718815 0.009341612 0.2740941 -0.12813008 -0.55343103 -0.32145467 0.04273277
0.2095209 -0.14641325 -0.034766503 -0.46326426 -0.43882406 0.0615725 -0.15668997 0.09925021
-0.0968438 -0.6559046 0.17462465 -0.5492144 0.20692003 0.07197434 -0.013118117 -0.28900364
-0.14734621 -0.119416825 0.16083018 -0.27142453 -0.11763803 -0.041519742 -0.015464922 -0.048000332
-0.058968846 -0.010971535 0.16921341 0.26336864 -0.17943648 0.04471409 0.14564261 0.21963401
-0.11755589 -0.118758105 0.38786966 -0.108288474 0.20272322 0.030202974 -0.55612504 0.21148734
-0.026608564 -0.4815876 -0.006377042 -0.3025259 -0.06895556 0.21303803 -0.23837608 -0.15690416
-0.2990601 0.22108091 -0.17224516 -0.29515368 0.04757438 -0.15241008 -0.02954074 -0.19887924
-0.40115175 0.0344042 -0.09310099 0.02643799 0.07852753 0.013586765 0.04658423 0.016638942
-0.3712296 -0.14507908 -0.14503048 0.3996973 -0.39192 0.057736922 0.10810056 0.04688132
0.08642887 0.21476515 0.023844324 0.05370119 0.03780394 -0.2807267 0.09487942 -0.3832421
-0.10743377 0.104788676 -0.32972625 -0.018988805 -0.013722319 -0.41501212 -0.038169045 -0.0824595
-0.026444001 0.108335316 0.003953853 -0.19080292 -0.055414535 -0.44671524 -0.08604872 -0.33817384
-0.2509934 -0.052401975 0.10526389 -0.086489856 0.0099824155 -0.2525527 -0.32412982 -0.17657812
0.00896581 0.27654177 -0.19936259 0.11333354 -0.0579601 -0.22329251 -0.24288589 -0.06569971
-0.44712096 -0.19844498 0.07351741 0.10109283 -0.033523113 -0.07437981 0.19086955 -0.086966425
-0.20524162 -0.05659531 -0.2202135 -0.23672205 0.29079613 0.028150128 -0.004561807 0.10359931
-0.41330266 0.0047432287 -0.16535106 0.34889528 0.39482132 -0.035807118 -0.17345136 0.13734354
-0.023723545 0.36502102 -0.051394995 0.16397503 0.121273704 0.03457395 0.0147473095 0.26609373
-0.06285953 0.17101121 -0.5706879 0.16835912 -0.104920775 0.039403245 0.21472146 -0.0043821614
-0.2732584 -0.04443339 0.064385906 -0.26547417 0.20240971 -0.013268867 0.05244841 -0.21333718
-0.17265631 0.2105489 0.1356619 -0.04724027 0.02093529 0.18228014 0.051947635 -0.006175542
-0.12877041 0.16160099 -0.12591901 0.06577318 0.15385811 -0.5743686 0.020574598 -0.027082924
-0.26294068 -0.34468704 0.21580218 0.07131816 -0.031333834 -0.033543766 -0.14158887 0.13407226
0.21935362 0.033990808 0.052168343 -0.17453523 0.14213574 -0.120900266 0.1582952 0.044066895
-0.5095564 0.12681833 -0.16311632 0.15169282 0.07384821 0.043990154 0.09313027 -0.036098972
-0.049819328 -0.013192472 -0.1013582 -0.06685612 -0.055774078 0.2692679 -0.07692759 0.2372411
-0.06685269 -0.004454733 -0.002281155 -0.18884502 0.022060052 0.24955747 0.24658085 -0.021683032
-0.43140307 -0.062680274 0.105858244 0.5830995 -0.17926003 0.28311893 -0.13613084 -0.28883746
0.053805985 0.15619223 -0.05041877 -0.27031285 0.09395565 0.10851631 0.27937046 -0.029828258
-0.20638566 -0.051007695 -0.42349502 -0.019455748 -0.16395925 -0.17619652 -0.5326775 -0.22925566
0.03635364 -0.3251516 0.052735753 -0.102758646 -0.006917618 -0.076794304 0.0030355304 -0.17200463

fc2.bias f4 [64]
00000000: 1922 82bc a591 903d fa6a 923d dc50 03be
00000010: c4ad ea3c 0b71 d4bd 277b c6bd e675 24bd
00000020: bc07 5c3e d24b 103f 3893 313c 3d87 4d3e
00000030: cf3b 563e 2550 f0bd a632 a5bd 213b 0bbc
00000040: 020a de3b ad43 9fbd a698 ed3c 7e88 023f
00000050: 2fe9 613e 522b 173f 1cbe 28be aae6 e83b
00000060: 1dbd a7bd 02d6 2abe 7c86 033c 1238 53be
00000070: b8fd 513d c762 953c 9327 c53b 572c 773e
00000080: 3063 85bd 0ab9 403e 04c4 8b3d 6fbd a23c
00000090: 8822 a5bb 093a 03be 2fef 9d3e 4b96 e13d
000000a0: 4f7c 4c3d a0e8 213f ce80 a93e 8cf7 22be
000000b0: a29f e5bd 8531 97bd 3690 d63e f63c 87bd
000000c0: c80e 97bd 32af b5bd e390 46be 31b9 063f
000000d0: cabd 4b3b 1581 31be 8273 c53d 59dd 14be
000000e0: 00f2 3fbe 96cc ddbd 2b29 04bd 5be7 f9bc
000000f0: 0759 01bd 3cdd 8e3d b044 f93d 11d6 a2bd
-0.0158854 0.070590295 0.071493104 -0.12823814 0.028647311 -0.10373124 -0.09691458 -0.0401515
0.21487325 0.5636569 0.010838322 0.2007112 0.20921253 -0.11734036 -0.08066301 -0.008497984
0.0067760954 -0.0777658 0.029003453 0.5098952 0.22061609 0.59050477 -0.16478771 0.0071075754
-0.08190367 -0.166832 0.008027669 -0.20626858 0.051267356 0.018235577 0.0060166805 0.24138008
-0.06513059 0.18820587 0.068244964 0.01986572 -0.005039517 -0.12815107 0.30846545 0.11014994
0.049923237 0.6324558 0.33106083 -0.15914744 -0.11212088 -0.07382492 0.419069 -0.06603424
-0.07375866 -0.088713065 -0.19391207 0.5262633 0.0031088465 -0.17334397 0.09641172 -0.14537562
-0.1874466 -0.10830037 -0.032265823 -0.030505827 -0.031579044 0.06975791 0.12171304 -0.07950986

fc3.weight f4 [4, 64]
00000000: 46c5 a23d d169 983e 0552 2a3e ea09 9cbe
00000010: b629 55be 84e1 903e 3038 213e ab75 98be
00000020: 21ea e53d c3ee 3b3e ddb8 2d3e bb45 113e
00000030: 63c0 54bd d38a 0cbd 9187 46bd 98b9 a43e
00000040: 55ca 173d 54e0 0fbd ac68 b23e a9d0 783e
00000050: 134f 193e c014 153e b178 223e b217 133e
00000060: 985a 173d ac79 68be 6948 293d 8873 12be
00000070: ff0b 543e 464f c43e 6df9 1abf 646a 303e
00000080: e894 df3d 03ae 1a3e f92d 4e3d ecec 023f
00000090: 4bd3 403e ed79 87bd fdd9 d53e 9af7 553d
000000a0: 1ce0 353d 3b54 393e 8feb 923d f895 6ebe
000000b0: ea7d 99bd d8df 75bd dfcd 613e b4f8 a53e
000000c0: df01 3bbe bbaa dc3e f8a5 a43e 2158 4d3e
000000d0: 17cb 193e 50ae 96be 4507 cc3d 9c2b 43bb
000000e0: 1c72 5ebe 97df 733e 763a b33e 7de9 b63d
000000f0: 2e88 f13d 707b 223e 2196 893e 4151 bd3d
00000100: 4de5 b3bd 5f35 cb3e f4ec a63d 2599 9cbe
00000110: bfe3 913d edb4 ad3e 40d2 8dbd dacf 5bbe
00000120: 1a0f b93d 3b2b 353e ad11 863e 00b4 043e
00000130: 0be2 313c 0ce2 243e 586f dfbb 5487 cc3e
00000140: 7e13 e73d 91d2 b33d 81a3 a63e 7ba2 163e
00000150: 75f3 013e 2c28 913e 8c19 4b3d e626 2b3e
00000160: 5d39 033d 0186 ecbd ad7f ef3c b0d8 5a3d
00000170: da43 593e a740 bd3e eac5 37bd 7fcc 073e
00000180: 901e 0c3e 1a2d 653d c11b 363e e383 e93e
00000190: 1f35 5e3e 9b02 98bd 2db0 6f3e 8e3a db3d
000001a0: 76b2 093e 5e72 7b3e 66a0 ce3d dae9 2cbe
000001b0: daae e7bd 1e9f 49bd 9c72 4c3e 3d17 a53e
000001c0: 037d 4cbe c50c e03e 3472 2a3d 0060 543d
000001d0: c7c6 293e 9bf1 2abd b78b 6e3e 39ac 1e3e
000001e0: 1910 9cbe a92c 02bd 99ed ec3e 2dab 5fbe
000001f0: 687d babe 1f31 d83d 69ac 813e a2cf 6c3e
00000200: 38b2 90be 5607 123e f5ff 9b3e 5a1f 32be
00000210: 82a2 583e 3cd0 913e 370c dfbc f23e 00be
00000220: b81a e33d b3a6 3a3e edc7 1ebe 972c bf3e
00000230: ded9 833e 77e3 bbbe c381 75bd 9d5f 223f
00000240: 1b43 853e 4729 0c3f cad5 40bd 4fc2 123e
00000250: 2b61 0f3e 232f 753e ebb5 83be cddd 873e
00000260: dd6b b13e bf19 a1be dc9b 96be 075b c3bd
00000270: 2bb4 3c3e 439d ae3e 8efb a7be 4719 253d
00000280: e873 393e 7bc0 383d 767b 0f3e 077a 9d3e
00000290: 2f56 0dbd cc60 fabd 3212 f53d dc6a 663e
000002a0: 5a7d ef3d eca6 633e 34c4 133e cbbd 2f3d
000002b0: 78ff 9f3d cd63 d53d a38b 4d3e f7ca 9f3e
000002c0: 68a8 aebc 3990 dc3e de8e c2be 59c8 693e
000002d0: 6175 0c3e 25b8 28be b7d2 103e bb6e 6f3e
000002e0: 7918 6abe d53b 213e c741 903d 808c c0be
000002f0: bd9c aebe bbed 913e ee9a be3e 5152 b93d
00000300: c5b9 553e 1b50 5a3e 010a c43d 645c c8bd
00000310: 0be5 23be ce8f d13e 902b e0bd bfb5 d43d
00000320: c9c6 e73d e756 573e 4d16 a53e 8e7b 403e
00000330: 5a06 0b3e d0bd a7bd 60a3 333d d029 8cbd
00000340: 62d4 d43d 572d 2f3f 55e5 893e ee8b 433e
00000350: ea9b b33d fc20 6e3e 7ee4 cb3d ccb8 8d3e
00000360: 49ef 273e f098 67bd 05dc 4dbe 9e62 00be
00000370: af3c 303e 4bdb 94bc 85f6 02bf aed9 e03d
00000380: 34dc af3e 4e99 483e 706d 75bd 0f0d 6c3e
00000390: 61a8 b7bd 90db 093d b27f 663e 640a 553e
000003a0: 34e9 0cbe efc8 763e b639 5f3e 667c e1be
000003b0: 29b3 3a3e 5f40 00bf 8d6a 1f3e ba53 6ebd
000003c0: 475d a0bd 4b62 f83e 3c67 683e 55fe 133e
000003d0: 3f25 bc3e a431 73bd 3f6c 883e 2a90 913e
000003e0: da43 acbe dcb1 f4be 83fc cabe b85b b4be
000003f0: 5be0 f1be b0c3 d73b 676f 273e 0d2c 713e
0.07947783 0.29768232 0.1663285 -0.30476314 -0.20816693 0.28297055 0.1574409 -0.29777274
0.11226297 0.18352799 0.16965051 0.14186756 -0.051941287 -0.03431208 -0.04846913 0.32172847
0.037058193 -0.035126045 0.34845483 0.24298348 0.1497157 0.14558697 0.15866353 0.14364508
0.03695163 -0.22702664 0.04132882 -0.14301884 0.20707701 0.3834173 -0.60536844 0.17228085
0.109170735 0.15105443 0.05033681 0.51142764 0.18830602 -0.06615052 0.41767874 0.052238084
0.04440318 0.18098538 0.071738355 -0.23299396 -0.07494719 -0.060027927 0.2205119 0.32416308
-0.18262433 0.43099007 0.32157874 0.2005315 0.15018879 -0.29429865 0.09962324 -0.0029780632
-0.21723217 0.23815762 0.3500554 0.08931253 0.11793552 0.158674 0.26872352 0.092440136
-0.0878397 0.39689156 0.08150664 -0.3058559 0.07123517 0.33927098 -0.06924868 -0.21466008
0.090360835 0.17692272 0.2618536 0.1295929 0.0108571155 0.16101855 -0.006818693 0.39946997
0.11283015 0.08780397 0.3254662 0.14710419 0.12690528 0.2835096 0.04958491 0.16714057
0.032037128 -0.11548997 0.029235685 0.053429306 0.2121729 0.36963388 -0.04486648 0.13261603
0.13683534 0.055951215 0.17784025 0.45608434 0.21699952 -0.07422372 0.2340705 0.10704528
0.13446984 0.24555346 0.10089187 -0.16886082 -0.11312647 -0.04922401 0.19965595 0.32244292
-0.19969563 0.43759742 0.04161282 0.051849365 0.16579734 -0.04173432 0.23295484 0.15495385
-0.30481032 -0.031780872 0.46275023 -0.21842642 -0.36423802 0.10556244 0.2532685 0.2312608
-0.2826097 0.14260611 0.30468717 -0.17394772 0.21155742 0.28479183 -0.027227504 -0.12524012
0.110890806 0.18227653 -0.15505953 0.37338707 0.25752157 -0.3669698 -0.059938204 0.63427144
0.2602776 0.54750484 -0.047078885 0.14331935 0.1400191 0.23943762 -0.2572473 0.26536408
0.34652606 -0.31464955 -0.29415786 -0.095388465 0.18428104 0.34104356 -0.32809108 0.04030731
0.18110621 0.04510544 0.1401194 0.30757162 -0.03450602 -0.12225494 0.11966361 0.22501701
0.11693831 0.22231644 0.14430314 0.04290561 0.07812399 0.10419426 0.20072798 0.31209537
-0.021320537 0.43078783 -0.37999624 0.22830333 0.13716651 -0.16476496 0.14142881 0.23382084
-0.22860898 0.1574548 0.07043796 -0.37607193 -0.34103957 0.28501686 0.37227577 0.09048904
0.20871647 0.2131962 0.095722206 -0.09783247 -0.16005342 0.40930027 -0.10945809 0.10386228
0.11317212 0.21029244 0.32243577 0.18797132 0.13576642 -0.08190501 0.04385698 -0.068439126
0.10392071 0.6842856 0.2693278 0.19096348 0.087699726 0.2325477 0.09955691 0.2768005
0.16399874 -0.056542337 -0.20103462 -0.1253762 0.17210649 -0.018170973 -0.5115741 0.10979019
0.3434769 0.19589731 -0.05991882 0.23051856 -0.089676626 0.033656657 0.2250965 0.20804745
-0.13760835 0.24100088 0.21799359 -0.4404022 0.18232407 -0.5009822 0.1556799 -0.058185317
-0.07830291 0.48512492 0.22695631 0.14452489 0.36747167 -0.059373513 0.26645085 0.284303
-0.33645517 -0.47791946 -0.39645776 -0.35226226 -0.47241482 0.006584607 0.1635109 0.2355196

fc3.bias f4 [4]
00000000: 6eff d43e b513 ba3e 2159 863e 1451 803e
0.41601127 0.3634316 0.26239875 0.25061858
